app/src/main/assets/model.tflite (tflite, 7336 bytes, 4 tensors)

arith.constant f4 [40]
000000 54 9a f6 bd f6 80 95 bd f6 b9 83 bd 50 ee d2 bd
       -0.120411545 -0.07299988 -0.064319536 -0.10299361
000010 f2 09 09 bc dd 5f 97 3d 36 c6 02 bd cd 4e 3b 3d
       -0.008364188 0.07391331 -0.03192731 0.045729447
000020 a2 ed 3f be f2 20 c1 bc 40 68 23 be 3f 0b 0b be
       -0.18742993 -0.02357528 -0.15957737 -0.13578509
000030 bb fd b6 3d 10 a8 b3 bd 1c 05 06 be cb a5 1c be
       0.08935114 -0.0877229 -0.13087887 -0.1529762
000040 c1 de 1e be 28 40 b0 3c d0 0d 7c 3c b2 8a 87 bd
       -0.15514661 0.021514967 0.0153841525 -0.06618251
000050 91 c7 8c 3d 8c 65 e5 bd 77 07 d7 bc 0e 3f 15 3d
       0.06874002 -0.11201009 -0.026248677 0.036437087
000060 97 a1 23 bd 3b 11 79 bc f3 11 36 bd fa dd 98 be
       -0.039949026 -0.015201862 -0.04445071 -0.29856855
000070 1f 81 e2 bd 7a 25 cc bd 58 a4 80 3d d4 44 6c be
       -0.11059784 -0.099680856 0.06281346 -0.23073131
000080 45 ec cb bd ae 9e 5d bd f5 f8 76 3e 09 b8 47 3b
       -0.09957174 -0.054106407 0.24118407 0.0030474684
000090 a2 d5 d2 39 d7 f3 93 be 14 88 31 bc 22 d8 4e bd
       0.0004021349 -0.28896973 -0.010835666 -0.05049909

arith.constant1 f4 [26]
000000 3e 06 57 bf 71 6e 44 3f f0 bd 81 3f db ac 84 c0
       -0.839939 0.7673102 1.0136089 -4.1461005
000010 e5 a9 3e 40 d9 9f f3 40 a1 ee 3e 40 6a 2e 06 c0
       2.9791195 7.6132627 2.9833148 -2.096583
000020 73 d0 24 40 73 ad 49 c0 fe 3f ea 3f 15 fd 9a 40
       2.5752227 -3.1512115 1.8300779 4.843394
000030 fc cb 14 40 c9 61 04 40 37 a6 ed 3f b5 41 85 3e
       2.3249502 2.0684683 1.856635 0.26026693
000040 2b 3c 61 3d f4 28 36 40 9f 33 2d 41 91 ef a4 40
       0.05498902 2.8462496 10.825103 5.154244
000050 f1 ee 7f 40 57 81 d7 40 a4 f1 2f 41 14 3b 51 40
       3.9989588 6.7345386 10.996494 3.2692308
000060 e9 8d 30 c0 32 f6 2a 41
       -2.7586615 10.685106

tfl.pseudo_qconst i1 [26, 40]
000000 31 26 11 12 04 f9 fb f4 f0 16 d1 19 e4 1f cc 1c
       49 38 17 18 4 -7 -5 -12 -16 22 -47 25 -28 31 -52 28
000010 ec d3 ff d6 f3 dd e3 d7 f6 27 e1 f0 7f fc ec f0
       -20 -45 -1 -42 -13 -35 -29 -41 -10 39 -31 -16 127 -4 -20 -16
000020 1f dc 03 1e 18 25 09 19 31 2b 07 f5 10 d7 0b fd
       31 -36 3 30 24 37 9 25 49 43 7 -11 16 -41 11 -3
000030 1a d4 7d 9b ce 26 f2 35 d7 cc f0 e7 09 0a b3 c3
       26 -44 125 -101 -50 38 -14 53 -41 -52 -16 -25 9 10 -77 -61
000040 fb f1 82 bc 83 f8 01 08 a4 d0 0f 7f 37 a2 0d fe
       -5 -15 -126 -68 -125 -8 1 8 -92 -48 15 127 55 -94 13 -2
000050 31 f9 f7 fc f5 23 05 fa 21 03 31 d2 0b f4 e0 2b
       49 -7 -9 -4 -11 35 5 -6 33 3 49 -46 11 -12 -32 43
000060 c0 60 df f3 0c eb d3 f7 f5 7f 67 1e 24 18 11 0e
       -64 96 -33 -13 12 -21 -45 -9 -11 127 103 30 36 24 17 14
000070 da e6 f5 00 d7 e9 02 01 d9 e3 04 1d ee e0 ef 07
       -38 -26 -11 0 -41 -23 2 1 -39 -29 4 29 -18 -32 -17 7
000080 3f 04 e7 3e 1c 0a 7f ea 3a dd ef c2 09 eb d7 d0
       63 4 -25 62 28 10 127 -22 58 -35 -17 -62 9 -21 -41 -48
000090 01 fb d9 e7 ad 25 f1 ff ee e5 14 d1 e1 ed 06 00
       1 -5 -39 -25 -83 37 -15 -1 -18 -27 20 -47 -31 -19 6 0
0000a0 81 f8 04 24 03 f4 0d fd 16 f6 ff 11 ed f5 e3 f2
       -127 -8 4 36 3 -12 13 -3 22 -10 -1 17 -19 -11 -29 -14
0000b0 e4 ee f3 f2 06 15 30 19 0b d4 00 f0 fe 0b 08 f6
       -28 -18 -13 -14 6 21 48 25 11 -44 0 -16 -2 11 8 -10
0000c0 eb 0a d1 a0 1c 10 05 17 02 ed 09 dc 06 e5 ee f5
       -21 10 -47 -96 28 16 5 23 2 -19 9 -36 6 -27 -18 -11
0000d0 e4 0a ee 1c fc ed dc ee ec d7 d4 db f3 e8 d8 ec
       -28 10 -18 28 -4 -19 -36 -18 -20 -41 -44 -37 -13 -24 -40 -20
0000e0 15 0d 3b 06 81 ed f6 00 fe f3 0b 3b fc d5 0e f4
       21 13 59 6 -127 -19 -10 0 -2 -13 11 59 -4 -43 14 -12
0000f0 dc 63 e7 50 e9 da 05 ed c0 10 ee cf 4d 21 ba 2a
       -36 99 -25 80 -23 -38 5 -19 -64 16 -18 -49 77 33 -70 42

sequential_1/dense_1/MatMul i1 [40, 84]
000000 2a ff 3e 48 1e 20 da 38 df e7 01 24 d2 3b 27 7f
       42 -1 62 72 30 32 -38 56 -33 -25 1 36 -46 59 39 127
000010 29 33 1b 14 d5 df 20 dd cc f0 f0 1e 01 fc c0 fe
       41 51 27 20 -43 -33 32 -35 -52 -16 -16 30 1 -4 -64 -2
000020 e0 bf f7 49 b8 ee 27 c0 1e ba 1c 09 ff 20 d6 32
       -32 -65 -9 73 -72 -18 39 -64 30 -70 28 9 -1 32 -42 50
000030 cb 1b 1d 9d 36 04 02 4f e8 31 b6 00 05 fb 2b 07
       -53 27 29 -99 54 4 2 79 -24 49 -74 0 5 -5 43 7
000040 ca df 2e d6 2d 2a d7 5a 9f 44 08 7c 2a c6 65 a5
       -54 -33 46 -42 45 42 -41 90 -97 68 8 124 42 -58 101 -91
000050 46 00 22 b0 cb 18 ff dd 25 10 55 a0 7f e6 f5 f9
       70 0 34 -80 -53 24 -1 -35 37 16 85 -96 127 -26 -11 -7
000060 c1 e1 ff 05 8e 4c c2 06 c9 e5 fe 2a c4 29 15 dc
       -63 -31 -1 5 -114 76 -62 6 -55 -27 -2 42 -60 41 21 -36
000070 4b f3 03 d0 0c 0a 04 02 e8 17 fa d3 3e e0 f6 dc
       75 -13 3 -48 12 10 4 2 -24 23 -6 -45 62 -32 -10 -36
000080 0b a9 35 e3 c8 a6 2b b5 a2 f5 c2 ff c7 60 e6 3d
       11 -87 53 -29 -56 -90 43 -75 -94 -11 -62 -1 -57 96 -26 61
000090 05 ac 2f de 23 be b5 cb 4a bc f9 d9 19 08 f0 eb
       5 -84 47 -34 35 -66 -75 -53 74 -68 -7 -39 25 8 -16 -21
0000a0 47 a2 25 13 15 06 21 4f 04 ba e6 1f 34 14 48 a8
       71 -94 37 19 21 6 33 79 4 -70 -26 31 52 20 72 -88
0000b0 5c 26 12 bf 3c ed f1 fe ea 6f 01 ac ac b6 a3 0a
       92 38 18 -65 60 -19 -15 -2 -22 111 1 -84 -84 -74 -93 10
0000c0 09 37 2d a4 d9 ea 3b e8 18 d5 f7 11 32 cb ed d9
       9 55 45 -92 -39 -22 59 -24 24 -43 -9 17 50 -53 -19 -39
0000d0 29 fe 13 37 f2 ec e6 3b bb 2c fc e5 d4 ac e8 c3
       41 -2 19 55 -14 -20 -26 59 -69 44 -4 -27 -44 -84 -24 -61
0000e0 f4 26 19 00 1e 8f 32 4c c5 6c f2 4d 4b 81 31 e2
       -12 38 25 0 30 -113 50 76 -59 108 -14 77 75 -127 49 -30
0000f0 f3 f6 d0 37 2e 83 46 1e 24 bd a0 df 18 e6 da 09
       -13 -10 -48 55 46 -125 70 30 36 -67 -96 -33 24 -26 -38 9
